weight/dcgan_D.pth (torch, 408640 bytes, 21 tensors)

layers.0.weight f4 [16, 1, 3, 3]
0	0xbdaae3a6	-0.08344202
1	0x3d0b21f5	0.03396793
2	0xbc7d9d66	-0.015479421
3	0x3e323957	0.17404686
4	0xbd201eb3	-0.039091777
5	0x3c9ab258	0.018883869
6	0xbf4285e0	-0.7598553
7	0x3dba022e	0.09082447
8	0x3cd0ea8b	0.025502464
9	0xbc714fa0	-0.014728457
10	0x3b356660	0.0027679428
11	0xbe088f40	-0.13335896
12	0xbe2f7d34	-0.17137605
13	0x3d8a50e1	0.06753708
14	0x3ef831c9	0.48475483
15	0x3e589ca5	0.21153505
16	0xbdf2783e	-0.118393406
17	0xbeab5695	-0.33464494
18	0x3da9a2fd	0.08283041
19	0x3e2906c1	0.16506483
20	0xbeb345b3	-0.35014114
21	0xbd8936d9	-0.066999145
22	0x3ef6bbbb	0.48190102
23	0xbeadc9ad	-0.3394293
24	0xbde6f9ef	-0.1127814
25	0x3e47e9c3	0.19522767
26	0xbd6d3f37	-0.057921614
27	0x3d76d67a	0.060263135
28	0xbeafe5cb	-0.34355006
29	0x3eb3498d	0.35017052
30	0x3e8506da	0.2598179
31	0xbe5ce79c	-0.21572727
32	0xbdb3ae64	-0.08773497
33	0xbe96f9f2	-0.29487568
34	0x3f04837d	0.51763135
35	0xbe43e84e	-0.19131586
36	0xbe73d114	-0.23810226
37	0xbef962e5	-0.48708263
38	0xbe50525c	-0.20343918
39	0x3ddca6cf	0.10774004
40	0x3e810bff	0.25204465
41	0x3e2b42ad	0.16724654
42	0x3d7f341a	0.062305547
43	0x3e77f121	0.24213077
44	0x3dcc7fe8	0.09985334
45	0xbe938e3a	-0.28819448
46	0x3da0a70e	0.07844363
47	0xbdd1256f	-0.10212218
48	0x3e2d9a62	0.16953424
49	0xbd7af66e	-0.06127017
50	0xbdd9a834	-0.10627785
51	0xbd8253f0	-0.06363666
52	0xbd5146c8	-0.051092893
53	0x3cb47ff8	0.022033677
54	0x3d42e81c	0.047584638
55	0xbe34a39f	-0.17640541
56	0x3de8e9d2	0.11372723
57	0x3e4bd6d8	0.19906175
58	0xbef549db	-0.4790791
59	0x3e97604c	0.29565656
60	0x3e4e941e	0.2017369
61	0xbedd4ecf	-0.4322419
62	0x3e6d788d	0.23190518
63	0x3dcfe99f	0.101519816
64	0xbe1fe6d4	-0.15615398
65	0xbc61e45d	-0.013787356
66	0x3def1d5a	0.1167552
67	0x3e8a498a	0.2700923
68	0xbdd125b6	-0.10212271
69	0x3e24d6ee	0.16097614
70	0x3e4684fb	0.19386666
71	0x3e3142d4	0.17310649
72	0xbe8b4bfa	-0.27206403
73	0xbea97708	-0.33098626
74	0xbe379674	-0.17928487
75	0xbc769e40	-0.015052378
76	0xbd1f79fd	-0.038934696
77	0x3cb46ced	0.022024596
78	0x3eb5a8ac	0.3548025
79	0x3ea7eda6	0.327985
80	0x3e34b127	0.17645703
81	0x3db83d39	0.08996052
82	0xbdaf01dd	-0.08545277
83	0x3cae1df5	0.021254519
84	0xbf44f0ca	-0.76929915
85	0x3e6592e9	0.22419323
86	0xbcdaf184	-0.026726492
87	0x3d72c157	0.059266414
88	0xbda8080a	-0.08204658
89	0x3cb8ce25	0.022559235
90	0x3e9c0ca4	0.30478394
91	0xbe9e291f	-0.30890748
92	0x3e1318a4	0.14364868
93	0xbf05f746	-0.52330434
94	0x3eccca6e	0.39998192
95	0xbe2e1a5f	-0.17002247
96	0x3e70798f	0.23483871
97	0xbe05ba95	-0.13059457
98	0x3d3ae3f1	0.045627538
99	0x3e9e0601	0.30863956
100	0x3d83358a	0.06406696
101	0xbeb5ef08	-0.3553393
102	0xbe084fc0	-0.13311672
103	0xbeaf0b59	-0.34188345
104	0x3eaaa913	0.33332118
105	0xbe4246d2	-0.18972328
106	0x3e477312	0.1947749
107	0x3d91fe4f	0.07128584
108	0x3d1f198a	0.038842715
109	0x3e60aa1a	0.21939889
110	0x3e56172f	0.20907281
111	0xbe167d93	-0.1469634
112	0xbef9951a	-0.48746568
113	0xbeb30f33	-0.34972534
114	0x3ddb7abf	0.10716771
115	0x3e885eee	0.26634926
116	0x3e0e8bf0	0.1392057
117	0xbed7d811	-0.42157033
118	0x3e39b3c7	0.18134986
119	0x3da23a29	0.079212494
120	0xbeb67578	-0.35636497
121	0x3e9947af	0.29937503
122	0x3e28e00f	0.16491722
123	0xbcf2ef83	-0.029655224
124	0x3dbf3481	0.09336186
125	0x3a76e8ba	0.0009418834
126	0x3e101ac9	0.14072718
127	0xbe454039	-0.1926278
128	0xbe4ee287	-0.20203601
129	0x3eebe8d7	0.4607608
130	0xbe302a4e	-0.17203638
131	0xbe42525c	-0.1897673
132	0x3e839f53	0.25707492
133	0xbcefb0f9	-0.029259192
134	0xbd64bb25	-0.055842537
135	0x3d8802de	0.06641172
136	0x3ec78b75	0.38973585
137	0x3e17a39b	0.14808504
138	0x39a1da33	0.00030870884
139	0x3d5a9482	0.053364284
140	0x3e044211	0.12915827
141	0xbe8aff58	-0.27147937
142	0xbedb2ff7	-0.42810032
143	0xbdb34069	-0.0875252

layers.0.bias f4 [16]
0	0x3d0540a8	0.032532364
1	0xbb833e00	-0.0040051937
2	0xbbd9e613	-0.0066497414
3	0xbd84459d	-0.0645859
4	0xbaa0676e	-0.0012237856
5	0x3e5e57d2	0.21713188
6	0xbaddd287	-0.0016923704
7	0xbf11fbb6	-0.57024705
8	0x3be7d5be	0.0070750406
9	0x3cbf80f6	0.023376923
10	0xbb73e4c0	-0.0037215203
11	0xbb59e2e9	-0.0033246821
12	0xbb31f56c	-0.002715434
13	0xbc0226ae	-0.007943792
14	0xbc7d3c31	-0.015456245
15	0xbbbf7732	-0.0058430666

layers.3.weight f4 [32, 16, 3, 3]
0	0x3d284c91	0.041088644
1	0xbdf2ba96	-0.11851995
2	0xbce8e2bf	-0.028428433
3	0xbd3c56c2	-0.045981176
4	0x3d473f61	0.048644427
5	0x3cf418b1	0.02979693
6	0xbc0a3c5e	-0.008437244
7	0x3d17e385	0.037082214
8	0x3d611f8b	0.054961722
9	0x3d18468d	0.037176657
10	0x3d80809e	0.06274532
11	0xbd16ea1f	-0.03684437
12	0x3d3ac44a	0.045597352
13	0xbe4ec0dd	-0.20190759
14	0x3de441bc	0.1114535
15	0xbca26d46	-0.019827496
16	0x3ccdec91	0.025137218
17	0xbb66a5e4	-0.0035194093
18	0xbe0fde93	-0.14049749
19	0xbd1abef9	-0.037779782
20	0x3c81ad09	0.01582958
21	0xbd945b4a	-0.072439745
22	0xbd327883	-0.04357196
23	0xbaec4667	-0.0018026353
24	0x3e30f40e	0.172806
25	0x3d646a57	0.055765476
26	0x3d8de983	0.069293045
27	0x3c055f18	0.008140348
28	0xbdd135ea	-0.102153614
29	0x3dc3d30c	0.09561738
30	0xbdc4b515	-0.09604851
31	0xbd618119	-0.055054758
32	0x3d9eb63e	0.07749604
33	0xbe1202ba	-0.14258853
34	0x3e0196d3	0.12655191
35	0x3e13683f	0.14395235
36	0x3e5c76e2	0.21529725
37	0xbce304c0	-0.027712226
38	0xbda34aab	-0.07973226
39	0x3e6cd46e	0.2312791
40	0xbd894937	-0.06703418
41	0xbd997319	-0.07492656
42	0xbe5f722c	-0.21820897
43	0x3bcf8821	0.0063333665
44	0xbd8ddd62	-0.06926991
45	0xbd7267f2	-0.05918116
46	0xbd94755a	-0.072489455
47	0x3cff2902	0.031147484
48	0xbd8e5c3a	-0.069511846
49	0xbbc9c8c4	-0.0061579663
50	0xb9ad343c	-0.0003303605
51	0x3d94671f	0.07246231
52	0x3d02dc5f	0.031948444
53	0x3d156c57	0.036480274
54	0xbd3e2031	-0.04641742
55	0xbe038d12	-0.12846783
56	0xbd6f4351	-0.058413807
57	0xbe8d5363	-0.27602682
58	0x3cf95770	0.030437201
59	0x3ce0e39a	0.027452279
60	0xbd437988	-0.047723323
61	0x3d6f1e79	0.05837867
62	0x3dbc63f7	0.09198754
63	0x3cdb19e5	0.026745746
64	0x3d388e5d	0.045057643
65	0x3c5844ef	0.013200029
66	0xbca8f96c	-0.020626746
67	0x3d06428a	0.0327783
68	0xbd7685c9	-0.06018618
69	0x3dbeefb6	0.09323065
70	0xbd84c895	-0.064835705
71	0xbb457fe3	-0.003013604
72	0x3e974d13	0.2955099
73	0x3d9af350	0.075659394
74	0xbdb97f77	-0.09057515
75	0x3e7990a1	0.24371578
76	0xbe8b8742	-0.2725163
77	0xbd53884c	-0.051643655
78	0xbe44dcde	-0.19224879
79	0xbe378ffa	-0.17926016
80	0x3c8756a9	0.016520815
81	0x3ddd4bc8	0.1080547
82	0xbe24a1a9	-0.16077293
83	0xbd01c803	-0.031684887
84	0x3d058635	0.032598693
85	0xbdbcff2b	-0.09228357
86	0xbc494c6c	-0.012286287
87	0xbe038bb9	-0.12846269
88	0x3e101638	0.14070976
89	0x3e052c86	0.13005266
90	0xbc8b5e91	-0.017012866
91	0x3cde40e1	0.027130546
92	0xbdcd5df7	-0.10027688
93	0x3e152005	0.14562996
94	0xbe452d9e	-0.19255683
95	0x3e4ad3f2	0.19807413
96	0xbe2dcb00	-0.1697197
97	0x3e35a29a	0.17737809
98	0x3d7dbe9d	0.06194936
99	0x3ebce37c	0.36892307
100	0xbe8b5870	-0.2721591
101	0x3d3f93bc	0.04677175
102	0xbdbdd5fd	-0.09269331
103	0x3e5ee30e	0.21766302
104	0x3d414d95	0.04719313
105	0xbce3cb32	-0.027806852
106	0x3d8dd69d	0.069257
107	0x3b036195	0.0020047177
108	0x3e2c8dfc	0.16851038
109	0xbe830682	-0.25590903
110	0xbe4f83ea	-0.20265165
111	0xbd923c35	-0.0714039
112	0xbe1785d1	-0.1479714
113	0x3c9c54ce	0.019083407
114	0x3d01727b	0.031603318
115	0xbd7dee10	-0.061994612
116	0x3da7ea66	0.08199005
117	0x3dddded7	0.10833519
118	0x3b74ebfe	0.0037372108
119	0xbe279581	-0.16365625
120	0xbbea3aee	-0.0071481382
121	0xbe0a5f6e	-0.13512966
122	0x3d1bdda2	0.038053162
123	0xbd7e9ac1	-0.062159304
124	0x3d9ddbfe	0.07707976
125	0x3d294984	0.041329876
126	0xbd3f0a36	-0.046640597
127	0xbcf8f70d	-0.03039124
128	0xbb96bd39	-0.004600194
129	0xbe84175e	-0.25799078
130	0x3c979658	0.018504307
131	0xbd6765d5	-0.0564936
132	0x3e61c4d4	0.2204774
133	0x3da978d6	0.08275001
134	0x3d77cbcc	0.06049709
135	0x3d10e8f2	0.035378404
136	0xbdc590bc	-0.096467465
137	0x3d953655	0.07285754
138	0xbdeef56c	-0.11667904
139	0x3d67d33f	0.056597944
140	0xbd782c50	-0.060589135
141	0x3cfc6019	0.030807542
142	0xbdd903b8	-0.105964124
143	0x3d36038a	0.04443697
144	0xbd43834a	-0.04773263
145	0x3bf3c3e5	0.007439124
146	0xbcc6b820	-0.02425772
147	0xbd876012	-0.06610121
148	0x3d8081d6	0.06274764
149	0x3db441b0	0.088015914
150	0xbcd993c4	-0.026559718
151	0xbce80823	-0.028324192
152	0x3d41110b	0.047135394
153	0xbec104fc	-0.37699115
154	0xbe82a2bf	-0.2551479
155	0xbdeb11bc	-0.11477992
156	0x3db3dd8c	0.08782491
157	0xbe20f2f4	-0.1571768
158	0x3d397ea4	0.04528679
159	0x3e870de7	0.26377794
160	0x3e8dcc36	0.27694863
161	0x3d9f117d	0.077670075
162	0x3d2a247a	0.041538693
163	0x3b05f113	0.002043788
164	0x3d4b72fd	0.04967021
165	0xbe41f661	-0.18941642
166	0xbd4a705c	-0.04942356
167	0xbe38ddc6	-0.1805335
168	0xbcd3dec0	-0.025863051
169	0xbdc29971	-0.09501923
170	0x3d6dadef	0.058027204
171	0x3e0ecd20	0.13945436
172	0x3e685ae1	0.22690918
173	0x3e466690	0.19375062
174	0x3ebd6617	0.3699195
175	0x3e4a8aee	0.1977956
176	0x3dcfac54	0.10140291
177	0x3d5d22f3	0.05398841
178	0x3dee6afb	0.11641499
179	0xbdd9ffbb	-0.1064448
180	0xbe094b07	-0.13407527
181	0xbd1fce38	-0.039015025
182	0x3b557d09	0.0032575747
183	0x3d795287	0.06086972
184	0xbdb7a392	-0.089667454
185	0xbc910199	-0.017700957
186	0x3e39f088	0.18158162
187	0xba8a7340	-0.0010562912
188	0xbdd34f35	-0.10317842
189	0xbd37a418	-0.044834226
190	0x3d545124	0.051835194
191	0x3d6d1664	0.05788268
192	0xbd0222e8	-0.03177157
193	0xbe3444e9	-0.17604412
194	0xbd9a43b0	-0.075324416
195	0x3e291f99	0.1651596
196	0x3d5b3668	0.053518683
197	0xbb3e803b	-0.002906813
198	0xbf1526f9	-0.5826259
199	0xbe4004be	-0.18751809
200	0xbcfc87f1	-0.03082654
201	0x3e684d40	0.22685719
202	0x3e1d0666	0.15334472
203	0x3e1c22b0	0.15247607
204	0xbe1abbf4	-0.15110761
205	0xbe2ac999	-0.16678466
206	0xbd809dd4	-0.06280103
207	0x3e1a5c19	0.15074195
208	0x3b60e462	0.0034315814
209	0xbd0e8bbd	-0.034801234
210	0xbd8b5a4d	-0.06804333
211	0x3d089b65	0.03335132
212	0xbdb03701	-0.08604241
213	0x3cee4431	0.02908525
214	0xbdb36a25	-0.0876048
215	0x3cee2dba	0.029074538
216	0xbc0020cd	-0.00782032
217	0x3a396f21	0.00070737494
218	0xbd1d6b83	-0.03843261
219	0x3c4aec88	0.012385495
220	0xbd064137	-0.032777037
221	0xba8b9722	-0.00106499
222	0x3ac509be	0.0015032811
223	0xbd266561	-0.040624026
224	0x3d66912b	0.056290787
225	0x3c8bd5d4	0.017069735
226	0x3cd5dac8	0.0261053
227	0x3db8e625	0.090282716
228	0xbdddc290	-0.108281255
229	0x3ce8da1a	0.028424311
230	0x3dae3f37	0.08508151
231	0xbd86e322	-0.06586291
232	0xbdae01ef	-0.084964626
233	0xbd2022c9	-0.039095674
234	0x3e8b2360	0.27175426
235	0x3c8c54a2	0.0171302
236	0xbe175fa9	-0.14782585
237	0x3cbd6e33	0.023123836
238	0x3d2beff1	0.041976873
239	0xbdd28db2	-0.102809325
240	0x3e9e0e50	0.30870295
241	0x3eaee993	0.34162578
242	0xbe48d36f	-0.19611906
243	0xbdcea17d	-0.10089395
244	0x3d6bc663	0.057562243
245	0xbd809d77	-0.06280034
246	0x3dd77ae9	0.1052149
247	0xbe015dab	-0.12633388
248	0xbdac4725	-0.08412007
249	0x3e295bd8	0.16538942
250	0x3e0b1958	0.13583887
251	0xbe00cfd3	-0.12579279
252	0xbde9eb4e	-0.11421834
253	0xbe9a26d6	-0.30107754
254	0x3d62d560	0.05537927
255	0x3dbe92fb	0.09305378

layers.3.bias f4 [32]
0	0x3bffe2c6	0.007809016
1	0x3c0fa580	0.008767486
2	0xbd055c4e	-0.03255873
3	0xbc211276	-0.009831062
4	0xbb8962bf	-0.0041926797
5	0xbc618d8f	-0.01376666
6	0xbc538643	-0.012910428
7	0xbb304844	-0.0026898542
8	0xbd3de5c8	-0.046361715
9	0xbdcc4620	-0.09974313
10	0xbdba1138	-0.090853155
11	0xbc04c5cd	-0.0081038
12	0xbdc274d0	-0.094949365
13	0x3d8eaeab	0.06966909
14	0xbafcceea	-0.0019287739
15	0xbc9bed82	-0.019034151
16	0x3d72c851	0.059273068
17	0xbc4bed55	-0.012446721
18	0xbc1c5a7e	-0.009543059
19	0xbbc3aa6b	-0.005971243
20	0xbb91a592	-0.0044447863
21	0xbcfa7d7b	-0.030577412
22	0xbc6ad4c5	-0.014332955
23	0xbc1c1113	-0.009525555
24	0xbb1c70b0	-0.0023870878
25	0x3d98cfb2	0.0746149
26	0xbca6f29b	-0.020379355
27	0x3d228af9	0.039683316
28	0x3c709039	0.014682823
29	0xbc177deb	-0.00924633
30	0xbe3fa101	-0.18713762
31	0xbd8f1542	-0.069864765

layers.6.weight f4 [32]
0	0x3f9fae76	1.2475116
1	0x3f9d2a7f	1.2278594
2	0x3f9dd639	1.2331
3	0x3f9c4128	1.2207384
4	0x3f9327cb	1.1496519
5	0x3f8f7d41	1.12101
6	0x3fa41bcf	1.2820987
7	0x3f9c6e9a	1.2221253
8	0x3f8bb512	1.0914633
9	0x3fdc1e57	1.7196759
10	0x3f916a2b	1.1360525
11	0x3f909cfd	1.1297909
12	0x3f8d8c76	1.105849
13	0x3faa1a43	1.3289264
14	0x3f96552c	1.1744742
15	0x3fd4d075	1.6626116
16	0x3f9d558a	1.229173
17	0x3f89f0ac	1.0776572
18	0x3f8f3136	1.1186893
19	0x3fa9a1b8	1.3252478
20	0x3fab9bde	1.3406942
21	0x3f96907c	1.1762843
22	0x3fa880c4	1.3164296
23	0x3fa0ef42	1.2573016
24	0x3f9d9667	1.2311524
25	0x3f802849	1.0012294
26	0x3f9d5893	1.2292656
27	0x3fb71f5e	1.4306448
28	0x3f90a70e	1.1300981
29	0x3fb3af59	1.4037887
30	0x3f80c4f0	1.00601
31	0x3fc08ae5	1.5042387

layers.6.bias f4 [32]
0	0xbaad06e2	-0.0013200904
1	0x3c7766ce	0.015100194
2	0xbb3d19bc	-0.002885445
3	0x3ba278b4	0.0049582366
4	0xbbb36915	-0.0054751732
5	0xbc39cd2e	-0.011340423
6	0x3c601a68	0.013678171
7	0x3b916706	0.00443733
8	0xbc2eeea3	-0.010677013
9	0x3d382124	0.04495348
10	0x3b89e369	0.0042080176
11	0x3a2067b2	0.00061189674
12	0x3c3f99a4	0.011694346
13	0xbd1afe2a	-0.037840046
14	0x3bcc0028	0.0062256046
15	0xbc4c1f31	-0.0124586085
16	0xbcdade8e	-0.02671745
17	0x3b7918e2	0.0038009216
18	0x3a93007c	0.0011215354
19	0xbbb2c8b2	-0.0054560537
20	0x3bc78cd3	0.0060897856
21	0xbc2aa01d	-0.010414151
22	0x3b86ffcf	0.00411985
23	0x3ca6d870	0.020366877
24	0x3b5ca35d	0.0033666708
25	0x3c1163ee	0.008873923
26	0xbc8e8761	-0.017398538
27	0xbc6e6aef	-0.014551862
28	0xbbba279a	-0.0056809904
29	0xbbff82bf	-0.0077975686
30	0x3beff22c	0.0073225703
31	0x3d0e55e3	0.034749877

layers.6.running_mean f4 [32]
0	0x3c89617f	0.016770123
1	0x3aca0196	0.001541185
2	0x3c12a75b	0.008951033
3	0x3c161847	0.009161062
4	0x3c1960d3	0.009361464
5	0x3c48fab6	0.012266805
6	0x3beb5af7	0.0071824747
7	0x3c80433d	0.015657062
8	0x3b8557d2	0.004069307
9	0xbcfa2e07	-0.030539526
10	0x3c296397	0.0103386855
11	0x3c3197fe	0.01083946
12	0x3b1e3126	0.0024138181
13	0xbc3286fa	-0.010896439
14	0x3c98dd42	0.018660191
15	0x3bf4ebef	0.0074744145
16	0xbba53d9d	-0.0050427453
17	0x3b8fca57	0.0043881345
18	0x3c3cbf4a	0.011520216
19	0x3b56b4d0	0.0032761581
20	0x3c1fcb6c	0.009753089
21	0x3bf3d197	0.0074407565
22	0x3c5d9823	0.013525042
23	0x3c1d15c5	0.00958771
24	0x3c09d9a8	0.00841371
25	0x3c84f944	0.01623214
26	0x3bc19673	0.0059078275
27	0xbc39e7ae	-0.011346741
28	0x3c1a1a15	0.0094056325
29	0x3ac81f3f	0.0015268101
30	0x3abaeb1f	0.0014260745
31	0xbc2bb3ca	-0.010479877

layers.6.running_var f4 [32]
0	0x3bd32e5d	0.006444736
1	0x3b1e2461	0.002413057
2	0x3b99d89d	0.004695012
3	0x3bca436f	0.0061725895
4	0x3b83287c	0.004002629
5	0x3bc5311d	0.0060178176
6	0x3b94144e	0.004519022
7	0x3bbd13aa	0.0057701664
8	0x3b494be2	0.0030715396
9	0x3aa0536c	0.0012231893
10	0x3b9b9b1b	0.0047487146
11	0x3be0f65f	0.006865307
12	0x3b9cd3ad	0.004785976
13	0x3b7e153b	0.0038769979
14	0x3bd1a595	0.0063979127
15	0x3b3ccd05	0.0028808725
16	0x3b963627	0.004584092
17	0x3b36d5dc	0.0027898466
18	0x3c02edeb	0.007991294
19	0x3b93fe9f	0.004516437
20	0x3bc48841	0.005997688
21	0x3b9325ff	0.0044906135
22	0x3ba2f759	0.004973334
23	0x3b9c6d88	0.0047737993
24	0x3b6aa455	0.0035803516
25	0x3bd1820d	0.006393677
26	0x3bc09a7f	0.0058777924
27	0x3b8773b7	0.0041336673
28	0x3b81abde	0.0039572557
29	0x3b343632	0.0027498123
30	0x3bdcf859	0.0067434725
31	0x3aa56710	0.0012619216

layers.7.weight f4 [64, 32, 3, 3]
0	0x3c67a2dc	0.01413795
1	0xbdec67f3	-0.11543264
2	0xbe064e43	-0.13115792
3	0xbdb4d0df	-0.088289015
4	0xbe0e5cc1	-0.1390257
5	0xbcb0226e	-0.021500792
6	0xbe1a87f4	-0.15090925
7	0xbe5c71e0	-0.21527815
8	0x3d3d3899	0.046196554
9	0xbdd0965d	-0.101849295
10	0xbe1e3059	-0.1544813
11	0xbc945730	-0.01810798
12	0x3e40efbe	0.18841454
13	0x3e63155a	0.22176114
14	0x3d812042	0.06304981
15	0x3d9950db	0.07486125
16	0x3dffc59e	0.12488864
17	0x3d6e0a6b	0.058115404
18	0xbdbe0801	-0.092788704
19	0xbe25626c	-0.16150826
20	0xbddac708	-0.106824934
21	0x3d75deb4	0.06002684
22	0x3d3f8c85	0.04676487
23	0x3d342d65	0.043988604
24	0x3de44f1c	0.111479014
25	0x3e32b7d9	0.17452945
26	0x3d5595db	0.052144866
27	0x3cb2b0b9	0.021812784
28	0x3d04ccd6	0.03242191
29	0x3bc77f0c	0.006088143
30	0xbdd5c970	-0.10438812
31	0xbdab6bba	-0.083701566
32	0xbd3b2e16	-0.045698248
33	0xbe582c88	-0.21110737
34	0xbe67c5b6	-0.22634014
35	0xbd94b1d7	-0.07260483
36	0x3db0832e	0.086187705
37	0xbd55eb20	-0.052226186
38	0x3cf03c0b	0.029325506
39	0x3ca035e0	0.01955694
40	0xbdc34dab	-0.09536298
41	0xbda88ba0	-0.08229756
42	0xbcd9d0ae	-0.026588764
43	0xbd61ffd4	-0.055175617
44	0xbd273f16	-0.040831648
45	0x3e497fb4	0.19677621
46	0x3e416eec	0.1888997
47	0x3db99a6d	0.090626575
48	0x3d9d48d4	0.076799065
49	0x3e65776d	0.22408839
50	0x3d0a2b4b	0.033732694
51	0x3d2e4817	0.04254922
52	0x3db86078	0.09002775
53	0xbdab83ec	-0.083747715
54	0x3d10121a	0.035173513
55	0xbd6547b0	-0.05597657
56	0x3be9a42b	0.007130166
57	0x3dea2301	0.11432458
58	0x3c5d6994	0.013513941
59	0x3d0e1794	0.034690455
60	0x3d8e0e3a	0.06936307
61	0x3cb5320e	0.022118594
62	0xbd63e979	-0.05564258
63	0xbd1e3aec	-0.03863041
64	0x3d261173	0.040543985
65	0xbd0596fb	-0.03261469
66	0x3dac14ad	0.08402381
67	0x3dcae87e	0.099076256
68	0x3d47d8d0	0.048790753
69	0x3c293d35	0.010329534
70	0x3d3d1108	0.04615882
71	0x3d322192	0.043489046
72	0x3d639f1a	0.055571653
73	0xbbfcd42f	-0.007715724
74	0x3d676145	0.056489248
75	0x3db81894	0.08989063
76	0x3e08029d	0.13282247
77	0x3debd487	0.11515146
78	0x3e0ba399	0.13636626
79	0x3e7de6e1	0.24795105
80	0x3d0dee54	0.034651116
81	0x3d71b988	0.059014827
82	0xbd244797	-0.040107336
83	0xba179655	-0.0005782594
84	0x3d65fc0e	0.05614858
85	0x3c98b66c	0.018641673
86	0xbda51bde	-0.08061956
87	0x3c72781c	0.014799144
88	0x3c27288f	0.010202541
89	0x3e02c304	0.12769705
90	0x3ce61319	0.028085278
91	0xbda9fc02	-0.0830002
92	0xbd3bce4a	-0.04585103
93	0xbbed9f92	-0.0072516883
94	0x3da33bda	0.079704
95	0x3dd7456c	0.10511288
96	0xbc8c2f48	-0.01711239
97	0x3e0cf341	0.13764669
98	0x3d3ceda7	0.04612508
99	0x3dd867f9	0.10566706
100	0xbc18e8a0	-0.009332806
101	0xbcb0206b	-0.021499833
102	0xbd5c75bf	-0.05382323
103	0xbc38893a	-0.011263186
104	0xbcbd49b1	-0.023106428
105	0xbd7e6e2a	-0.06211678
106	0xbe07545a	-0.13215771
107	0xbd7da8e1	-0.061928634
108	0x3d50bb43	0.050959837
109	0x3cb4b8c0	0.022060752
110	0x3dc5b0b8	0.09652847
111	0x3d52e9ad	0.05149238
112	0x3e393b80	0.18089104
113	0x3cbd9a2e	0.023144808
114	0x3e110a89	0.14164175
115	0x3df9e4cd	0.122018434
116	0x3d808e15	0.062771
117	0xbd88d0bf	-0.0668044
118	0x3da15be3	0.07878854
119	0xbd3e0538	-0.046391696
120	0x3e00e2bf	0.12586497
121	0x3dc8c691	0.098034985
122	0xbd3726db	-0.04471479
123	0x3d1e7cac	0.038693115
124	0x3cd92151	0.026505144
125	0x3cb0a544	0.02156318
126	0xbe2d0411	-0.16896082
127	0xbe320c69	-0.17387547
128	0xbcfbeedc	-0.030753545
129	0xbe00d52a	-0.12581316
130	0xbd44eeb4	-0.048079208
131	0x3dcdbdff	0.100460045
132	0xbe0bac2d	-0.13639899
133	0x3d7a12c3	0.06105305
134	0x3de42580	0.11139965
135	0xbb6da8ff	-0.003626406
136	0xbc3347f4	-0.010942448
137	0x3d472889	0.04862264
138	0xbcac9fcc	-0.02107229
139	0x3ca5a2fc	0.020219319
140	0x3dea1591	0.11429895
141	0xbcd8f9a6	-0.02648623
142	0x3dd38326	0.10327749
143	0x3db69264	0.089146405
144	0xbde6a990	-0.1126281
145	0xbdfda2a6	-0.12384538
146	0xbd63bbf0	-0.055599153
147	0xbe137b09	-0.14402403
148	0x3da3d4d9	0.07999582
149	0x3e1bd209	0.15216841
150	0x3d7d55f0	0.061849535
151	0x3c99506e	0.01871511
152	0x3d86bc74	0.06578913
153	0x3d697eb8	0.057005614
154	0x3de525d6	0.11188857
155	0x3d221271	0.03956837
156	0x3e1729a1	0.14761974
157	0x3da0e392	0.078559056
158	0x3dd47705	0.10374264
159	0x3e0807bf	0.13284205
160	0x3ccd021d	0.025025422
161	0xbd16a3e9	-0.03677741
162	0x3dd65b00	0.104665756
163	0xbd1e23f4	-0.038608506
164	0x3cb5b503	0.02218104
165	0xbd7927c6	-0.060828947
166	0xbd5b3791	-0.05351979
167	0x3d3a4f3d	0.045485724
168	0xbe02efea	-0.12786832
169	0xbe1f1578	-0.15535533
170	0xbd58b3cc	-0.052905843
171	0xbdd688a5	-0.104752816
172	0xbe3c8b8e	-0.18412611
173	0xbd9d70e7	-0.0768755
174	0xbc215cef	-0.009848817
175	0x3cdbbfb4	0.02682481
176	0x3d856225	0.0651286
177	0x3df1a80a	0.11799629
178	0x3e3f85e4	0.18703419
179	0x3cf8c28f	0.03036621
180	0xbe2d6449	-0.16932787
181	0xbe6c6d47	-0.23088561
182	0xbe1d4060	-0.15356588
183	0xbe3eafb3	-0.18621711
184	0xbe38e7d1	-0.18057181
185	0x3c8b88ae	0.017032947
186	0xbe0c2e91	-0.13689639
187	0x3b58a4d0	0.003305722
188	0x3df6805f	0.120362036
189	0xbc89c7ca	-0.0168189
190	0x3c8641a8	0.01638873
191	0x3cc7ab73	0.024373746
192	0x3d3425cb	0.043981355
193	0xbda4dcb7	-0.080499105
194	0xbdd73c21	-0.105095156
195	0x3cc03ffe	0.023468014
196	0xbd47fa3e	-0.048822634
197	0xbe3aa00f	-0.1822512
198	0x3dda469c	0.10657999
199	0xbc66e20e	-0.014091982
200	0xbdb8d2b5	-0.09024564
201	0x3cafb604	0.021449097
202	0xbd9c3e84	-0.076291114
203	0xbd6f8bae	-0.05848282
204	0xbc9db3d1	-0.019250782
205	0xbde8a91d	-0.11360381
206	0xbdf62993	-0.120196484
207	0xbe0d08fd	-0.1377296
208	0xbe59af5d	-0.21258302
209	0xbe697f91	-0.22802569
210	0xbe24715b	-0.16058867
211	0xbde6aac4	-0.1126304
212	0xbdbbd0a6	-0.09170656
213	0x3c366bbb	0.011134083
214	0x3de44f36	0.11147921
215	0x3d8fa459	0.07013769
216	0x3bac43a5	0.0052570873
217	0xbd0e4b6a	-0.03473989
218	0x3c26a31d	0.010170725
219	0x3e07b702	0.13253406
220	0x3db4d3d3	0.08829465
221	0x3d237095	0.03990229
222	0x3d187490	0.037220538
223	0x3e200508	0.1562692
224	0x3d9e07ec	0.07716355
225	0x3bff0114	0.007782111
226	0xbd045b0e	-0.0323134
227	0x3cbb781a	0.022884417
228	0xbd529c15	-0.051418383
229	0xbe46c61e	-0.19411513
230	0xbc33b616	-0.010968706
231	0xbd4fd532	-0.05074043
232	0xbc4eb879	-0.012617224
233	0x3d4f95db	0.050680023
234	0x3e1733f7	0.14765917
235	0x3dcf7e84	0.10131553
236	0x3dda6cfb	0.106653176
237	0x3e24331d	0.16035123
238	0x3e249d0f	0.16075538
239	0x3d3b1c01	0.045681003
240	0x3e163318	0.14667928
241	0x3d340c79	0.043957207
242	0xbc6257db	-0.013814892
243	0xbd16311f	-0.03666794
244	0xbd79662f	-0.060888465
245	0x3ce027d4	0.027362742
246	0x3d2acf12	0.041701384
247	0xbd382574	-0.044957593
248	0x3d663791	0.056205336
249	0x3d078d97	0.033094015
250	0xbd134713	-0.035956454
251	0xbbbfdd11	-0.0058552106
252	0xbc4a4003	-0.012344363
253	0xbdb87b4a	-0.090078905
254	0xbce5dc3d	-0.02805912
255	0x3d823b72	0.063589945

layers.7.bias f4 [64]
0	0xbda5a54c	-0.080881685
1	0xbdb174c2	-0.08664848
2	0xbdd233d1	-0.102637894
3	0xbdadecdc	-0.08492443
4	0xbd85c4e1	-0.06531692
5	0xbe0294e0	-0.12752104
6	0xbddc7de3	-0.107661985
7	0xbd9adad9	-0.07561273
8	0xbda36486	-0.07978158
9	0xbdf2aadc	-0.11848995
10	0xbdb32820	-0.087478876
11	0xbdf762e7	-0.12079411
12	0xbdb0935f	-0.08621859
13	0xbda69aa1	-0.08134962
14	0xbda9312f	-0.08261334
15	0xbda71b22	-0.08159472
16	0xbdd09296	-0.10184209
17	0xbe03953a	-0.12849894
18	0xbdad4487	-0.08460336
19	0xbe2e61e9	-0.17029537
20	0xbe0032d8	-0.12519395
21	0xbdd369f2	-0.10322942
22	0xbd9b4e56	-0.07583301
23	0xbdf6b141	-0.12045527
24	0xbdd974b6	-0.10617964
25	0xbdbca2cb	-0.09210738
26	0xbd89568c	-0.06705961
27	0xbd8e8dfc	-0.06960675
28	0xbd6ff130	-0.058579624
29	0xbdd9234b	-0.10602435
30	0xbdd0edb4	-0.10201588
31	0xbdb9d118	-0.090730846
32	0xbd60902b	-0.05482499
33	0xbd463022	-0.048385747
34	0xbdcfbeae	-0.10143791
35	0xbe1b4971	-0.15164734
36	0xbdabe81b	-0.0839388
37	0xbcd9edf9	-0.026602732
38	0xbe1f7d74	-0.155752
39	0xbdcb42b5	-0.09924833
40	0xbdad7dad	-0.084712364
41	0xbd9058b3	-0.07048168
42	0xbdc28f7d	-0.095000245
43	0xbde89460	-0.11356425
44	0xbe47457d	-0.19460101
45	0xbd2f12af	-0.042742427
46	0xbd69fc0a	-0.05712513
47	0xbd51a20a	-0.051179923
48	0xbdd033bc	-0.101661175
49	0xbe09617f	-0.13416098
50	0xbd91d807	-0.07121282
51	0xbdaf25b5	-0.08552114
52	0xbdd91f7d	-0.10601709
53	0xbd7864ee	-0.06064313
54	0xbdf5f604	-0.120098144
55	0xbd928603	-0.07154467
56	0xbdd87a96	-0.105702564
57	0xbd80a632	-0.06281699
58	0xbdeb2582	-0.114817634
59	0xbdd87fb7	-0.10571235
60	0xbe0c2a0c	-0.13687915
61	0xbdb4b08a	-0.08822735
62	0xbdb1d175	-0.08682529
63	0xbd9392df	-0.07205748

layers.10.weight f4 [64]
0	0x3f8c6d08	1.0970774
1	0x3f92db05	1.147309
2	0x3f8fe5c3	1.1241993
3	0x3f93e41a	1.1553986
4	0x3f9cfd0d	1.2264725
5	0x3fa85e6f	1.3153819
6	0x3f809f1e	1.0048559
7	0x3f9004d1	1.125147
8	0x3f936cb9	1.1517555
9	0x3fa23641	1.2672807
10	0x3f8b0ef4	1.0863938
11	0x3f82bf11	1.0214559
12	0x3fadb9b7	1.3572301
13	0x3f87dfc0	1.0615158
14	0x3f8242ba	1.0176613
15	0x3f8374f9	1.0270072
16	0x3fa74b0e	1.306978
17	0x3fa28f0a	1.2699902
18	0x3f8344b2	1.0255339
19	0x3fafcf0c	1.3735061
20	0x3f960f06	1.1723335
21	0x3f914d50	1.1351719
22	0x3fa08e78	1.2543478
23	0x3fa5d24c	1.2954803
24	0x3f933719	1.150119
25	0x3f90fff9	1.1328117
26	0x3fad8410	1.3555927
27	0x3f906a18	1.1282377
28	0x3f97cd3b	1.1859506
29	0x3f99231a	1.1963837
30	0x3f976f50	1.1830845
31	0x3f971062	1.1801875
32	0x3f8f6bed	1.1204811
33	0x3f927699	1.1442443
34	0x3fa51df8	1.2899771
35	0x3fb358bb	1.4011453
36	0x3f9afc39	1.2108222
37	0x3f7f82a0	0.9980869
38	0x3f818ca5	1.0121046
39	0x3f9cd198	1.2251463
40	0x3f9d0bce	1.2269228
41	0x3f7aea3b	0.9801366
42	0x3f8c3562	1.0953791
43	0x3f8a7618	1.0817289
44	0x3face72a	1.3508046
45	0x3f8d4907	1.1037911
46	0x3fa92167	1.3213319
47	0x3f93474d	1.1506134
48	0x3f874434	1.0567689
49	0x3f8fe5c7	1.1241997
50	0x3f8cf923	1.101353
51	0x3f93304d	1.1499115
52	0x3fa9525f	1.3228263
53	0x3fa63cc6	1.2987297
54	0x3fa26eaa	1.2690022
55	0x3f92d669	1.1471683
56	0x3f9693c1	1.1763841
57	0x3f89039e	1.0704229
58	0x3f96f3f6	1.1793201
59	0x3f9dfc96	1.2342708
60	0x3fa0ce0d	1.2562882
61	0x3f7d42d3	0.9893009
62	0x3fab8f05	1.3403021
63	0x3f884e51	1.06489

layers.10.bias f4 [64]
0	0xbc4e393b	-0.012586887
1	0xbd9ac2d2	-0.0755669
2	0x3d831f17	0.06402414
3	0xbd3abd3a	-0.045590617
4	0xbd4e2e85	-0.050337333
5	0x3d6ea739	0.058264945
6	0xbcd544a2	-0.026033703
7	0x3cd5c5fe	0.026095387
8	0x3c196284	0.009361867
9	0xbd5a3857	-0.053276386
10	0xbb33f6de	-0.0027460377
11	0x3c8f385e	0.017482933
12	0x3cb2ae57	0.021811647
13	0x3d238803	0.039924633
14	0xbd5c336b	-0.053759973
15	0xbd193414	-0.03740318
16	0xbc39972a	-0.011327544
17	0xbcef1eef	-0.029189555
18	0x3c3a1bad	0.0113591375
19	0x3c9d0ee0	0.019172132
20	0xbd20c40f	-0.039249476
21	0x3c68eeb7	0.01421707
22	0x3c9584cc	0.018251799
23	0xbd242d89	-0.04008249
24	0xbc643c44	-0.013930384
25	0x3dcc3fdf	0.0997312
26	0xbc596074	-0.013267625
27	0x3d248f68	0.040175825
28	0x3d86cf6d	0.06582532
29	0x3c593fe6	0.0132598635
30	0xbcdfeb0a	-0.027333755
31	0xbca23e9d	-0.019805247
32	0xbd12d408	-0.03584674
33	0x3d217d72	0.039426275
34	0xba96ada6	-0.0011495843
35	0xbaba9799	-0.0014235853
36	0x3d9ec570	0.07752502
37	0xbb88e498	-0.004177641
38	0x3db445e0	0.0880239
39	0x3d13e03f	0.03610253
40	0x3d0d7a03	0.034540188
41	0xbd2ec118	-0.042664617
42	0x3c314f80	0.010822177
43	0x3c7d757d	0.015469906
44	0x3bf645f9	0.0075156656
45	0x3d21818b	0.039430182
46	0xbccab73c	-0.024745576
47	0x3d0c7e1c	0.034299955
48	0x3dad0455	0.08448092
49	0xbb75b0ec	-0.0037489487
50	0x3d21e174	0.03952165
51	0x3cb1b981	0.0216949
52	0xbd810a46	-0.06300788
53	0x3be2bac5	0.0069192373
54	0xbd4633ca	-0.048389234
55	0x3c0597da	0.00815388
56	0xbcf5a9b8	-0.029988155
57	0xbd736264	-0.059420004
58	0xbd6bd8f4	-0.05757995
59	0xbbb2db4d	-0.0054582716
60	0xbcd142c3	-0.02554453
61	0x3b965d03	0.0045887246
62	0xbd97d50b	-0.074136816
63	0x3c581ae5	0.013190006

layers.10.running_mean f4 [64]
0	0x3b189088	0.0023279507
1	0x3aadba12	0.0013254306
2	0xbc1c15dc	-0.009526696
3	0xbbac2c58	-0.0052543096
4	0xbc8d8c27	-0.017278744
5	0xbc276202	-0.010216238
6	0x3cb3258a	0.021868486
7	0x3be7d424	0.0070748497
8	0x3c33da72	0.010977374
9	0xbc67e553	-0.014153796
10	0x3ac234e0	0.0014816783
11	0xbba53f5d	-0.005042954
12	0xbbc10eed	-0.005891672
13	0x3cb15c91	0.021650584
14	0x3bc20f0d	0.0059222043
15	0x3b8dece4	0.004331218
16	0xbc7ace8f	-0.0153080365
17	0x3b2a2971	0.0025964642
18	0x3b416bea	0.0029513785
19	0xbc84ab5f	-0.016194997
20	0xbc2231d3	-0.009899574
21	0x3b9d1a15	0.004794369
22	0x3a9e286f	0.0012066494
23	0xbc91ba03	-0.017788893
24	0xbc1583c4	-0.009125654
25	0xbb03174a	-0.0020002895
26	0xbbb02f55	-0.005376736
27	0xbc64b3f5	-0.013958921
28	0xbb254d46	-0.002522306
29	0xbbb08a2e	-0.005387566
30	0x3a6337a6	0.0008667655
31	0xbc1a00cb	-0.009399603
32	0x3b3cdb4a	0.002881723
33	0x3c11630c	0.008873712
34	0xbb944f24	-0.004526036
35	0xbc93fe70	-0.018065661
36	0xbb6e7795	-0.0036387194
37	0x3c8beec5	0.017081628
38	0x3bcdfc60	0.006286189
39	0x3bb408c5	0.0054942095
40	0xbc1d7ce4	-0.009612296
41	0x3954198d	0.00020227414
42	0xbb9dcba3	-0.004815535
43	0x3ac76e9b	0.0015215458
44	0xbcc6deb6	-0.024276119
45	0xbb58bc2f	-0.003307115
46	0x3b5582b2	0.0032579121
47	0xbb4c840d	-0.0031206638
48	0xba8bcbc8	-0.001066559
49	0xbbe88181	-0.007095516
50	0xba557961	-0.0008143392
51	0x3bcdb614	0.006277809
52	0xbc3105a1	-0.010804565
53	0x3bedcb99	0.0072569367
54	0x3c52ab97	0.012858293
55	0xbb40d85f	-0.0029425842
56	0xbc3c4aff	-0.01149249
57	0x3bc355ec	0.0059611704
58	0xbc032c7d	-0.008006212
59	0xbbe6d25b	-0.0070441193
60	0xbc51a586	-0.0127958115
61	0x3c50b6f4	0.012738932
62	0xbc946a14	-0.018116988
63	0xbaa0c7f4	-0.0012266622

layers.10.running_var f4 [64]
0	0x3c1f1c99	0.009711408
1	0x3bc77a96	0.0060876114
2	0x3c0054b3	0.007832694
3	0x3bfbba13	0.007682094
4	0x3b9a9650	0.0047176257
5	0x3c18d668	0.009328462
6	0x3c5db0bb	0.013530905
7	0x3bd134ab	0.0063844523
8	0x3be98897	0.0071268785
9	0x3bd60a32	0.006531977
10	0x3c5d0014	0.013488788
11	0x3be70a60	0.0070507973
12	0x3bb9cf0f	0.0056704353
13	0x3c2d8e2b	0.0105929775
14	0x3c59a6a5	0.01328436
15	0x3bf251b2	0.0073949927
16	0x3c032cc9	0.008006283
17	0x3c2a4cde	0.010394303
18	0x3bd0f981	0.0063773994
19	0x3c02bc79	0.007979506
20	0x3bd18308	0.006393794
21	0x3bd4d24a	0.006494795
22	0x3c01420a	0.00788928
23	0x3befd58b	0.0073191575
24	0x3beb2b6c	0.007176807
25	0x3c0aabe4	0.0084638335
26	0x3bd3025d	0.0064394907
27	0x3bd05472	0.006357723
28	0x3bd967ce	0.006634689
29	0x3bed2d76	0.0072380854
30	0x3c290c5a	0.010317886
31	0x3bad8fe9	0.0052966964
32	0x3c0045e8	0.007829167
33	0x3c329bf6	0.010901442
34	0x3bec7062	0.0072155455
35	0x3be9a93c	0.00713077
36	0x3bd68dfe	0.0065476885
37	0x3c029742	0.007970633
38	0x3c6e88e3	0.0145590035
39	0x3bf6c8ce	0.007531262
40	0x3c057b21	0.008147032
41	0x3c05103d	0.008121547
42	0x3b81e83b	0.0039644516
43	0x3c13f014	0.009029407
44	0x3b79a279	0.0038091226
45	0x3bc9abd8	0.0061545186
46	0x3c18d0fa	0.009327168
47	0x3c047c5d	0.008086291
48	0x3bea202a	0.0071449475
49	0x3bf5af28	0.007497687
50	0x3c0e99a5	0.008703624
51	0x3bf03014	0.00732995
52	0x3bc24f02	0.0059298286
53	0x3c21500a	0.009845743
54	0x3c44638e	0.011986626
55	0x3bda3f54	0.0066603813
56	0x3b9b47e3	0.004738794
57	0x3bb870f6	0.0056287004
58	0x3bed3928	0.0072394796
59	0x3be1db22	0.0068925777
60	0x3bcfe886	0.0063448576
61	0x3c535d08	0.012900598
62	0x3b8f7910	0.0043784454
63	0x3bc9e607	0.0061614546

layers.11.weight f4 [128, 64, 3, 3]
0	0xbd5a7585	-0.05333473
1	0xbce29bbe	-0.027662154
2	0xbca83fe2	-0.020538274
3	0x3da11eca	0.07867201
4	0x3d0a2d53	0.03373463
5	0x3d5db320	0.054125905
6	0xbd96789f	-0.073472254
7	0xbdc0a52a	-0.094065025
8	0xbdb30fb0	-0.087432265
9	0xbbd81a1b	-0.006594909
10	0x3bd3ae72	0.0064600045
11	0x3d92ef09	0.071744986
12	0x3ca61e0b	0.020277997
13	0xbdf977ec	-0.121810764
14	0x3d1b262d	0.037878204
15	0x3ceb3a79	0.028714405
16	0xbdb3de2e	-0.08782612
17	0xbc521188	-0.012821563
18	0x3e40de2c	0.18834752
19	0x3dc8848e	0.09790908
20	0xbe1281ef	-0.14307378
21	0xbcf1cb42	-0.029515866
22	0xbdd531a6	-0.1040986
23	0x3d2f05c6	0.042730115
24	0xbc87e7aa	-0.016589958
25	0xbd5b503a	-0.053543307
26	0xbc896bd8	-0.016775057
27	0x3e11b3a3	0.14228682
28	0x3d6d6bd7	0.057964172
29	0x3e37a68a	0.17934623
30	0xbe0aeaba	-0.13566104
31	0x3e29699d	0.16544195
32	0xbd3d539c	-0.046222314
33	0x3e274c2e	0.16337654
34	0x3e105af3	0.14097194
35	0xbbde92ac	-0.006792387
36	0x3dd3b317	0.10336893
37	0xbe2dd70a	-0.16976562
38	0x3e4206ac	0.18947858
39	0x3da8ef65	0.08248786
40	0x3cbb1ec1	0.022841813
41	0xbda62fd8	-0.08114594
42	0xbda6e891	-0.08149827
43	0xbd0f1e94	-0.03494127
44	0x3deceb04	0.11568263
45	0x3e7838d9	0.24240436
46	0x3d5e12a3	0.054216992
47	0xbde58842	-0.1120763
48	0x3dc6970d	0.096967794
49	0x3dcc2709	0.09968383
50	0x3d8c64fc	0.06855199
51	0x3c03d975	0.008047451
52	0xbb8bcacd	-0.004266119
53	0x3dac7a3c	0.08421752
54	0x3dc90577	0.098154955
55	0x3df0c7e6	0.117568776
56	0x3e198664	0.14992672
57	0xbcd7c8d1	-0.026340874
58	0xbdbeb077	-0.09311002
59	0x3d451dfa	0.04812429
60	0xbd2fe282	-0.042940624
61	0x3b9329f2	0.0044910843
62	0x3e0386b5	0.12844355
63	0x3cfd3979	0.030911194
64	0xbe1b01f5	-0.15137465
65	0xbe113a94	-0.14182502
66	0x3e03fc10	0.12889123
67	0x3e4e1a45	0.20127209
68	0x3d4e2f96	0.05033835
69	0x3bd6d2d8	0.0065558963
70	0xbd08bdd7	-0.03338417
71	0xbc1ed52f	-0.009694382
72	0x3e7442e8	0.23853648
73	0x3e178790	0.14797807
74	0xbd4ac44c	-0.04950361
75	0xbd74b57c	-0.05974339
76	0xbd36181e	-0.044456594
77	0xbd2e09fa	-0.042489983
78	0x3e19ba9f	0.15012597
79	0x3e042a16	0.1290668
80	0x3cfc2e94	0.030783929
81	0xbd8fe75b	-0.070265494
82	0x3e47eacf	0.19523166
83	0x3d9fa260	0.077946424
84	0xbc328499	-0.010895872
85	0x3e147979	0.14499463
86	0x3da13712	0.07871832
87	0xbcbba2da	-0.022904802
88	0x3bea639b	0.007152987
89	0xbd135cea	-0.03597728
90	0x3e10d942	0.14145377
91	0xbd922365	-0.07135657
92	0x3d7c64ac	0.061619446
93	0xbd25848b	-0.040409606
94	0xbe175408	-0.14778149
95	0x3e17d4b9	0.14827241
96	0x3d741c0f	0.05959707
97	0x3df4d9d6	0.119556114
98	0xbd068c09	-0.03284839
99	0x3deb7405	0.11496738
100	0x3e0dee00	0.13860321
101	0xbe057618	-0.1303333
102	0xbd3c2eca	-0.04594306
103	0x3d9a0279	0.07520003
104	0xbdb299c3	-0.08720734
105	0xbd83c4cb	-0.0643402
106	0xbd21e23d	-0.0395224
107	0xbd8b03ec	-0.067878574
108	0x3d43d5eb	0.04781143
109	0xbda007cd	-0.07813988
110	0xbd3d1c54	-0.046169594
111	0xbdaae710	-0.08344853
112	0xbe74928d	-0.2388403
113	0xbe86b207	-0.263077
114	0x3d867190	0.06564629
115	0x3d8ef2c2	0.06979896
116	0xbe0fac49	-0.14030565
117	0xbce8390f	-0.02834752
118	0xbd1f0317	-0.038821306
119	0x3ca0c2bf	0.019624112
120	0xbd535f7f	-0.051604744
121	0xbe135319	-0.14387168
122	0xbc8ec3b3	-0.017427301
123	0x3d064843	0.032783758
124	0xbd6b83ac	-0.05749862
125	0xbd789cda	-0.06069646
126	0xbd10802a	-0.035278477
127	0xbd7b73fe	-0.061389916
128	0xbd19b6ab	-0.03752772
129	0xbd0e77dd	-0.03478228
130	0xbcdf3182	-0.027245287
131	0xbd02e7dc	-0.0319594
132	0x3d064ebd	0.032789934
133	0xbd5defb4	-0.054183677
134	0xbc7715f0	-0.015080914
135	0xbd7cab2d	-0.061686683
136	0x3d19ffb7	0.037597384
137	0xbcbeb3bf	-0.023279069
138	0x3d8421ec	0.064517826
139	0x3d43b802	0.047782905
140	0x3c40bd38	0.011763863
141	0xbd73ff72	-0.059569784
142	0xbddddf24	-0.10833576
143	0xbd936f2f	-0.07198941
144	0x3dc15b04	0.09441188
145	0x3da00e57	0.07815235
146	0x3d6a7eaa	0.057249703
147	0x3db8103e	0.08987473
148	0x3e33a410	0.17543054
149	0xbdf2f1e7	-0.118625455
150	0xbc471670	-0.012151346
151	0xbcaa8671	-0.02081606
152	0x3d9efbb3	0.077628516
153	0x3b627301	0.003455341
154	0x3e524ce0	0.20537138
155	0xbd4aebfc	-0.04954146
156	0x3ca87f96	0.02056865
157	0x3e83c966	0.25739592
158	0x3db00974	0.08595553
159	0xbd21a074	-0.03945966
160	0x3debc2c2	0.115117565
161	0x3d8bfd90	0.068354726
162	0x3e012819	0.12612952
163	0xbd668946	-0.056283258
164	0x3c9219c1	0.017834546
165	0x3d74d919	0.059777353
166	0x3d9cf3ac	0.07663664
167	0xbd215f82	-0.039397724
168	0xbdc08b39	-0.094015546
169	0x3e02ccaa	0.12773386
170	0x3dbcdeea	0.09222205
171	0x3d526679	0.051367257
172	0x3c16ca7a	0.009203548
173	0x3c1cf257	0.009579263
174	0x3d568734	0.052375033
175	0x3dfc9465	0.123329915
176	0xbd78c27a	-0.060732342
177	0xbb24c7fe	-0.0025143619
178	0x3ca76b87	0.020437015
179	0x3cae2c67	0.021261407
180	0x3e0ca83c	0.13736051
181	0x3e0329e4	0.12808949
182	0xbbfdae32	-0.007741713
183	0x3d85c1fd	0.06531141
184	0x3defa1a2	0.11700751
185	0xbcea1ba6	-0.028577637
186	0xbd220b01	-0.039561275
187	0x3d9a418d	0.07532034
188	0x3ce28d82	0.027655367
189	0xbddb4fcc	-0.107085794
190	0xbcf2a86f	-0.029621331
191	0x3d9644b5	0.073373236
192	0x3db38312	0.08765234
193	0x3e2266b1	0.15859486
194	0xbdfe283d	-0.124100186
195	0x3d5fb339	0.05461428
196	0x3e3dcea1	0.18535854
197	0xbd48a911	-0.04898936
198	0x3d7e55c2	0.062093504
199	0xbcc3fefa	-0.023925293
200	0x3daf80ba	0.085694745
201	0xbd22f40e	-0.03978353
202	0x3dc5f82c	0.09666476
203	0x3d44df02	0.04806424
204	0xbd723324	-0.059130803
205	0xbc9fbf02	-0.01950026
206	0x3dacdf27	0.084410004
207	0xbca601f6	-0.020264607
208	0x3da4da58	0.08049458
209	0xbd86cccc	-0.06582031
210	0x3dcac2ab	0.09900411
211	0x3e5514f2	0.20808771
212	0x3cf3b6d2	0.029750261
213	0xbe56fe77	-0.20995508
214	0x3dbc79d7	0.092029266
215	0x3d3c40a7	0.045960095
216	0x3e2d8766	0.16946182
217	0xbcff6322	-0.0311752
218	0x3dfecc57	0.124413185
219	0xba764ca9	-0.00093955785
220	0xbd4ff923	-0.050774705
221	0x3d9f9272	0.07791604
222	0x3da9eba2	0.082968965
223	0xbd56f84c	-0.052482888
224	0xbdc59985	-0.09648422
225	0x3d47cd92	0.04878003
226	0x3c9fe201	0.019516947
227	0x3d7741ba	0.060365416
228	0x3d8dc087	0.06921487
229	0x3c4cbb6e	0.012495859
230	0xbdb3011f	-0.08740448
231	0xbca9e036	-0.020736795
232	0x3d883ce8	0.06652242
233	0xbdf950e3	-0.12173631
234	0x3b6e43ef	0.003635641
235	0x3d3f0b81	0.04664183
236	0x3cb7318a	0.02236249
237	0x3d90ee21	0.070766695
238	0x3e5a3d94	0.21312553
239	0x3d83c705	0.06434444
240	0x3daf4db5	0.08559743
241	0x3d7e8e20	0.06214726
242	0x3d1f6238	0.038912028
243	0x3ca691aa	0.02033313
244	0xbe1ad328	-0.15119612
245	0xbd5e7bcd	-0.054317284
246	0x3d087934	0.033318713
247	0x3cd4640d	0.025926614
248	0xbe1e861a	-0.15480843
249	0x3caaeafe	0.020864006
250	0x3d07f339	0.03319094
251	0x3b4bb958	0.0031085815
252	0x3b8a5e32	0.0042226547
253	0x3c4a8c0e	0.012362493
254	0xbe3953fa	-0.18098441
255	0xbe2ca8ac	-0.16861218

layers.11.bias f4 [128]
0	0xbd24bf23	-0.040221345
1	0x3acdbaea	0.0015695964
2	0xbd9f886a	-0.07789691
3	0xbd9d8d11	-0.07692922
4	0xbdacf09e	-0.084443316
5	0xbdd8deb8	-0.10589355
6	0xbd452cd5	-0.04813846
7	0x3d739c35	0.059475143
8	0xbc4304d5	-0.0119030075
9	0x3c27e74f	0.010248019
10	0xbc5dacc6	-0.013529962
11	0xbdccc8c9	-0.09999234
12	0xbd9350bf	-0.071931355
13	0xbd874199	-0.06604309
14	0xbc88566d	-0.016642774
15	0xbda175f7	-0.07883828
16	0xbced2fa9	-0.02895339
17	0xbcdcaf3e	-0.02693903
18	0xbb9bb718	-0.004752051
19	0xbd574a32	-0.052560993
20	0xbcafbda6	-0.021452736
21	0x3c9c1c02	0.019056324
22	0xbe0e3a55	-0.1388944
23	0xbe3780ae	-0.17920181
24	0xbd4091bb	-0.04701398
25	0xbd5d7527	-0.054066803
26	0xbe05a8c1	-0.13052656
27	0x3c980523	0.018557137
28	0xbe2e9f22	-0.17052892
29	0xbdb992c1	-0.09061194
30	0x3bd9c735	0.006646062
31	0xbe08c9aa	-0.13358179
32	0xbd0e2048	-0.034698755
33	0xbd882c05	-0.06649021
34	0xbcd514b0	-0.026010841
35	0xbcc399c9	-0.023877041
36	0xbd97767c	-0.07395646
37	0xbd4acd47	-0.049512174
38	0x3b0f8c53	0.0021903708
39	0xbdaaa87a	-0.083329156
40	0xbe065479	-0.13118161
41	0xbdb6673a	-0.08906408
42	0xbde3ff5f	-0.111326925
43	0xbe04d034	-0.12970048
44	0xbd4db6bf	-0.05022311
45	0xbdf80831	-0.121109374
46	0xbe22984c	-0.15878409
47	0x3c57b7c9	0.013166376
48	0xbde03c2b	-0.10948976
49	0xbe1f0e7e	-0.15532872
50	0xbdbcfa16	-0.092273876
51	0xbd8edb99	-0.06975479
52	0xbde1bb7a	-0.110220864
53	0x3ba53830	0.0050420985
54	0xbce0e645	-0.027453551
55	0xbdfcbd8f	-0.12340843
56	0xbd251ff1	-0.040313665
57	0xbd9cf30d	-0.07663546
58	0xbcf53b22	-0.029935423
59	0xbd8d0fe6	-0.06887798
60	0xbe5b92c5	-0.21442707
61	0xbd61da66	-0.05513992
62	0xbd17f263	-0.037096392
63	0xbd92edd6	-0.0717427
64	0xbdf4526c	-0.11929783
65	0xbd96ef12	-0.07369818
66	0xbd419d0f	-0.047268923
67	0xbd2c8302	-0.042117126
68	0xbd58a5fa	-0.052892663
69	0xbda842ed	-0.0821589
70	0xbc742619	-0.014901661
71	0xbdd20197	-0.102542095
72	0xbd524b1d	-0.051341165
73	0xbd8bb21c	-0.06821081
74	0x3d5f0456	0.054447494
75	0xbd39a96d	-0.045327593
76	0xbd0e0449	-0.034672055
77	0x3c89973a	0.016795743
78	0xbdd8eea1	-0.1059239
79	0x3ba00f57	0.004884641
80	0xbd942e22	-0.07235362
81	0xbdf18948	-0.117937624
82	0xbd9e2ba2	-0.07723166
83	0xbc5bac42	-0.013407769
84	0xbda7157c	-0.08158395
85	0xbce672cb	-0.02813091
86	0x3dd096d7	0.101850204
87	0xbc7f3345	-0.015576188
88	0xbd9bd468	-0.07608873
89	0xbd6e203b	-0.058136206
90	0xbdb216b0	-0.086957335
91	0xbdbd01a3	-0.09228828
92	0xbe1b8d9d	-0.1519074
93	0xbdac8888	-0.08424479
94	0xbd7f3345	-0.062304754
95	0x3d9167e4	0.07099894
96	0xbddc2ff2	-0.10751332
97	0xbd7e8d7e	-0.062146656
98	0xbd61f283	-0.055162918
99	0xbd28e210	-0.041231215
100	0xbd2e2771	-0.042518083
101	0xbddc6a70	-0.10762489
102	0xbcd54b99	-0.026037024
103	0xbdadb382	-0.08481504
104	0x3c439b25	0.011938845
105	0xbd735c28	-0.05941406
106	0xbd7f06ef	-0.06226247
107	0xbd8b8ac5	-0.068135776
108	0xbd257f4a	-0.040404595
109	0xbd071c11	-0.03298575
110	0xbd75457b	-0.059880715
111	0xbd13f52f	-0.036122497
112	0xbdee1b9f	-0.11626362
113	0xbdc00fba	-0.093779996
114	0xbd8036ba	-0.06260438
115	0xbca0ee36	-0.019644838
116	0xbda9a93c	-0.08284232
117	0xbdf394d1	-0.11893619
118	0xbd2a435f	-0.041568156
119	0xbda41500	-0.08011818
120	0xbdafcf2d	-0.085844375
121	0x3cf72001	0.030166628
122	0xbe1db527	-0.15401135
123	0xbd5fc1d8	-0.054628223
124	0xbddcec1b	-0.10787221
125	0xbc0c574f	-0.008565738
126	0xbd6a3e7c	-0.057188496
127	0xbd433bfc	-0.047664627

layers.14.weight f4 [128]
0	0x3f86e92a	1.0539906
1	0x3f8425e2	1.0324061
2	0x3f7eef8d	0.99584275
3	0x3f8c1ac4	1.0945668
4	0x3f986fe5	1.1909148
5	0x3f91d623	1.1393474
6	0x3f869b05	1.0516058
7	0x3faef1dc	1.366756
8	0x3f95afbc	1.1694255
9	0x3fa1fd0d	1.265535
10	0x3f6f9900	0.93592834
11	0x3f83c0e7	1.0293244
12	0x3f873821	1.0564004
13	0x3f8cf522	1.1012309
14	0x3f82e897	1.0227231
15	0x3f7d1b05	0.98869354
16	0x3f858377	1.0430745
17	0x3f8f1659	1.1178695
18	0x3f7e911b	0.99440163
19	0x3f9ca7af	1.2238673
20	0x3f932f92	1.1498892
21	0x3f8166e2	1.0109522
22	0x3f910eb4	1.1332612
23	0x3f958fe1	1.1684533
24	0x3f7df967	0.9920868
25	0x3f7de131	0.9917174
26	0x3f9ee717	1.2414273
27	0x3f9e6d02	1.2377017
28	0x3f82d41a	1.0220978
29	0x3f8ce096	1.1006038
30	0x3f87a503	1.0597233
31	0x3f883e33	1.0643982
32	0x3f911d98	1.1337156
33	0x3f875c8e	1.057512
34	0x3f801bc7	1.0008477
35	0x3f827488	1.0191813
36	0x3f93eece	1.1557252
37	0x3fa58cd6	1.2933605
38	0x3f958a18	1.1682768
39	0x3f7d26ec	0.98887515
40	0x3f882b0c	1.0638137
41	0x3f858f86	1.0434425
42	0x3f85c251	1.0449926
43	0x3f9e71d4	1.2378488
44	0x3f894dfd	1.0726925
45	0x3f89b385	1.075791
46	0x3f7d6255	0.9897817
47	0x3f844bf2	1.0335677
48	0x3f8e544d	1.1119477
49	0x3fa39870	1.2780895
50	0x3f92ee87	1.1479043
51	0x3fb6c589	1.4279033
52	0x3f8bb5ed	1.0914894
53	0x3f9e9f70	1.2392406
54	0x3f7d8b43	0.9904062
55	0x3f8cfb15	1.1014124
56	0x3f80d10a	1.0063794
57	0x3f8257e2	1.018307
58	0x3f9b1225	1.2114912
59	0x3f8b2a79	1.0872337
60	0x3f9e0940	1.2346573
61	0x3f8f6a73	1.1204361
62	0x3f8b353e	1.0875623
63	0x3f8b3943	1.087685
64	0x3f8bd21c	1.0923495
65	0x3fa6e1c0	1.3037643
66	0x3f809304	1.0044866
67	0x3f7e004f	0.9921922
68	0x3f934750	1.1506138
69	0x3f9c325c	1.2202868
70	0x3fbe7d18	1.4881926
71	0x3fa07664	1.253613
72	0x3fa37fba	1.2773354
73	0x3f96be08	1.1776743
74	0x3f78aaa3	0.9713537
75	0x3f8c5bf4	1.0965562
76	0x3f7c5ff3	0.98583907
77	0x3f812fb3	1.0092682
78	0x3f988955	1.191691
79	0x3f896107	1.0732735
80	0x3f6fa465	0.9361022
81	0x3f9b3fe3	1.2128872
82	0x3f837dc3	1.0272754
83	0x3f9fa115	1.2471033
84	0x3f90ee39	1.13227
85	0x3fa4d01a	1.2876008
86	0x3facfbcd	1.3514344
87	0x3f88d5f8	1.0690298
88	0x3f8be1a8	1.092824
89	0x3f68ce08	0.9093938
90	0x3f7941a1	0.97365767
91	0x3f8d324c	1.1030974
92	0x3f884187	1.0644997
93	0x3fa72871	1.3059217
94	0x3f829d18	1.0204191
95	0x3f7d4bc1	0.98943716
96	0x3fa9d845	1.3269125
97	0x3f90b719	1.1305877
98	0x3f809043	1.0044025
99	0x3f89e481	1.0772859
100	0x3f849bc7	1.036004
101	0x3f82f6df	1.0231589
102	0x3f8eb6fd	1.1149594
103	0x3f83fb06	1.0310981
104	0x3f8630bb	1.0483621
105	0x3f85b474	1.0445695
106	0x3f846466	1.0343139
107	0x3f81af60	1.0131645
108	0x3f8960ff	1.0732726
109	0x3f8a1aea	1.0789464
110	0x3f8a23cc	1.0792174
111	0x3f7dfb03	0.9921114
112	0x3f89355a	1.0719407
113	0x3fac7625	1.3473555
114	0x3f8b0c21	1.0863076
115	0x3f95f75c	1.1716113
116	0x3f893689	1.0719768
117	0x3f8b2c20	1.0872841
118	0x3f91afce	1.1381776
119	0x3fa56134	1.2920289
120	0x3f91f19a	1.1401856
121	0x3f767884	0.9627764
122	0x3f8a55fe	1.0807493
123	0x3f9af1c8	1.2105036
124	0x3f8424d6	1.0323741
125	0x3f776139	0.96632725
126	0x3f7ff3ce	0.9998139
127	0x3f900b94	1.1253533

layers.14.bias f4 [128]
0	0x3a71d437	0.0009225043
1	0x3c9adf7a	0.01890539
2	0x3cabeea0	0.020987809
3	0x3c5bb5f6	0.013410082
4	0x3b7e6045	0.0038814705
5	0x3c817f70	0.015807837
6	0xbb655099	-0.0034990667
7	0x3cc417af	0.023937074
8	0xba5babd9	-0.00083797943
9	0x3c68cbed	0.014208776
10	0x3c99392c	0.01870402
11	0x3bda9a11	0.006671198
12	0x3d05ff2f	0.032714065
13	0x3c054940	0.00813514
14	0xba73ab7a	-0.00092952664
15	0x3bcc0219	0.006225836
16	0x3c2a6a6c	0.0104013495
17	0x3b4dd7c0	0.0031409115
18	0x3b04f75b	0.0020289037
19	0x3cac45f4	0.02102945
20	0x3be915ae	0.00711318
21	0x3baf1d57	0.0053440738
22	0x3b3be91c	0.002867288
23	0xbabe3019	-0.0014510184
24	0x3bcae9d1	0.006192424
25	0x3baef2fb	0.005339024
26	0x3c9a9f83	0.01887489
27	0x3c616404	0.013756756
28	0x3c13c7fb	0.009019847
29	0x3b0398ab	0.002008001
30	0x3b951bf6	0.0045504523
31	0x3c16cfca	0.009204814
32	0x3ca0b41e	0.019617137
33	0xba01a373	-0.00049453153
34	0xbbbac1c7	-0.0056993696
35	0x3c03e663	0.008050534
36	0x3b1d6fe3	0.0024022989
37	0x3c0e1026	0.008670842
38	0x3c6fcff8	0.014636986
39	0x3c2d9e1f	0.010596781
40	0x3b18d775	0.0023321782
41	0x3c42d285	0.011891012
42	0xbad85d0a	-0.001650722
43	0x3c2097bf	0.009801804
44	0x3a9be5ec	0.0011894084
45	0x3c80063a	0.015627969
46	0x3b7af193	0.0038290962
47	0x3b528e2d	0.00321282
48	0x3b92b6d0	0.0044773594
49	0x3bae2b97	0.005315255
50	0x3c48bdf6	0.0122523215
51	0x3c6166aa	0.013757387
52	0x3c483b1a	0.012221122
53	0x3c94e58e	0.018175866
54	0x3be14a11	0.0068752845
55	0xbb89baee	-0.004203192
56	0x3c48f567	0.01226554
57	0x3b80860d	0.00392223
58	0x3bf07bc0	0.007338971
59	0x3c6893f5	0.014195432
60	0x3c7500b8	0.014953785
61	0xbbdba29f	-0.0067027356
62	0xbba8f5ec	-0.0051562693
63	0xbb6d1dda	-0.0036181123
64	0x3bcc1357	0.0062278914
65	0x3c32b931	0.010908411
66	0xb6cd9683	-6.126998e-06
67	0xbb1ca6e7	-0.0023903192
68	0x3ba19e36	0.0049321903
69	0x3ca48c7d	0.020086521
70	0x3c9ebbd1	0.019376667
71	0x3c89e8f9	0.016834723
72	0x3984c702	0.00025325274
73	0x3b001062	0.0019541015
74	0x39b829f7	0.0003512648
75	0x3bd2b802	0.006430627
76	0x39bc2764	0.00035887503
77	0x3b2022af	0.0024434736
78	0x3c6fbc9c	0.01463237
79	0xbbbc4500	-0.00574553
80	0x3c86c5f8	0.01645182
81	0x3c9efabc	0.019406669
82	0x3c1ff2ec	0.009762507
83	0x3ac7c1c7	0.0015240245
84	0x3b6d3fa8	0.0036201272
85	0x3c450ccc	0.012026977
86	0x3c981225	0.01856334
87	0x3adf9616	0.0017058279
88	0x3c4ee627	0.012628115
89	0x3c3884ab	0.011262099
90	0x3ae94226	0.0017796203
91	0x3ca49b3f	0.020093558
92	0x3bc7d10f	0.00609792
93	0x3c9ed68a	0.01938941
94	0x3b90ba06	0.004416707
95	0x3c7c2723	0.01539019
96	0x3c85076e	0.016238894
97	0x3964f67d	0.00021835598
98	0x3bbfe736	0.00585642
99	0x3bc79463	0.006090687
100	0x3bcb975c	0.006213112
101	0x3cb9f857	0.022701425
102	0xbbc1c475	-0.005913312
103	0xba3b9981	-0.0007156358
104	0x3c4ac52e	0.012376113
105	0xbbabe5e7	-0.0052459124
106	0x3b5b78e7	0.0033488811
107	0x3ac3d97e	0.0014942137
108	0x3cd8c584	0.02646137
109	0x3b283a82	0.002566964
110	0x3c64358f	0.013928785
111	0x3caa60a2	0.020798031
112	0x3c206181	0.009788872
113	0x3bd49d84	0.006488504
114	0x3b00e248	0.0019666124
115	0x3b4a0af8	0.0030829292
116	0x3baf1851	0.005343475
117	0x3be8a4f3	0.0070997416
118	0xbb21d9b8	-0.002469642
119	0x3c5eb1cc	0.013592195
120	0x3c03916f	0.00803028
121	0x3bd9d4e5	0.0066476935
122	0x38eb3b5f	0.00011216732
123	0xbbc5bdc9	-0.006034587
124	0x3c0f66c6	0.00875253
125	0x3be74cbe	0.007058709
126	0x3cb56187	0.022141231
127	0x3c9126c9	0.01771869
